final_model.pt (torch, 23664 bytes, 6 tensors)

fc1.weight f4 [64, 12]
00000000: 9294 683e 1b47 e8bd a2f2 e5bd cb08 6ebe
00000010: 7140 f33d 9159 043e de1c 483b 3406 2bbb
00000020: 4169 76be d271 913e d5e9 39bd 2741 983d
00000030: 48e5 4d3d 0780 493d e098 50be 6e91 973d
00000040: 4f20 20be e761 3ebe 214f 9ebf b315 3a3e
00000050: e8c6 46c0 e01f bc3d 5081 6c3b 9cbb 9abd
00000060: 28bc 433e bbd1 8cbe 564f 9cbd b139 81be
00000070: bb5a 693e f232 123d 31de 9b3d 9812 0bbc
00000080: 7371 33bc a61f 7ebe d67c e53d 5751 50be
00000090: 3540 24bf 4b4f 8c3e dc78 7bbd b7ec 613d
000000a0: 3519 993c 421a 0bbf f337 55c0 b14a f0be
000000b0: 8a5e 8abf 3228 8c3f 9ae9 47bd b589 3d3c
000000c0: f32b e13e 3684 ec3e ea99 a4be d34e 3ebe
000000d0: 64dd fb3c 49bb 81bf 9ea1 5abf e755 8ac0
000000e0: afba 4b3f 8eba 6dbf 5107 8bbe 8d36 2ebd
000000f0: 48f6 fc3c 9d91 27bf 20a6 a13d 4cac 15be
00000100: 8aab 00be a981 703f 3a21 0c3e d4c9 333f
00000110: 5666 c23f fcdc 9c3c 7824 d43e 83f6 cbbe
00000120: cbc5 dc3d eced aebd c003 78be ae41 853c
00000130: f34f 04be e864 44be 2c1a 5b3e 1deb 9d3d
00000140: 21f7 10be a9e8 85be 0dc6 e83c 260c 87bd
00000150: 0737 1c3e 2236 85bf 9bb5 a63d 5a77 bcbc
00000160: d09b 693f bbe4 153f 790d 56bf cb6a 74bf
00000170: dd74 0fc0 b0ad c7bf 0bcb 053f 50bb 71be
00000180: 810f 363f 1c18 b53d 76c2 dabc 5ee5 a4be
00000190: 8c41 0dbe 988a c23f c783 4740 a921 a23f
000001a0: 6d48 0140 5cb5 8abf 9668 773e 65b9 3cbd
000001b0: 8076 243f aaef ecbe 8aa8 c9bd d470 d13d
000001c0: 32af c43e c059 d13f 1274 2bc0 5a6f 183e
000001d0: 4a8a 1c40 16d7 d6bd 79b2 dc3e ddbd 09be
000001e0: b045 093d f085 403d 4ef9 fb3d 0fc9 5ebe
000001f0: ab16 61be b49c 9f3d 87ca 8e3e bf0b ffbd
00000200: b130 943d 6e75 f1bb a0de 343c a83f 853c
00000210: f970 bbbd fdd9 f03e c06d 47bd fe32 de3c
00000220: da23 8abd 8e24 123d 103e e3be 26f8 513e
00000230: d462 623f 0da1 c53f d9ba 653e 7a24 a2be
00000240: c4d9 5dbd 99c4 25be 15bc f1bc 803b 2dbd
00000250: 6dfa 253e 2b14 77be c644 12be e75a 913e
00000260: 7bcf 803e 00dd 0cbe 5aeb 3ebe 4ef8 3b3d
00000270: f071 febd 0f62 00bd bc10 723b 7376 82bd
00000280: 6394 6cbe fd55 e3bd 463e 01be ff82 30be
00000290: 7439 5e3e 4cd0 6f3e d08c c23d 6858 15be
000002a0: 66aa 3dbd f2c6 0d3e c253 d33d dc05 92be
000002b0: 270e 79be ca72 b7bd 19ca a2bd 121f 73be
000002c0: c509 4c3e 4d3d f4bc bf29 8cbe 6615 7f3e
000002d0: 9110 eb3d 0d81 7ebd fc51 f5bd ec6d c9bd
000002e0: 4ebe 9abd 3fe1 40be 37c5 1dbe 6ce9 8f3e
000002f0: 829a 0bc0 c131 6b3e ac23 47be e840 a7bd
00000300: 135e 5bbf 3816 7d3d 3edb 50be 982f ca3c
00000310: ea8a 0bbf ed08 27bf a86c 843f dd26 ee3c
00000320: 4eae ab3e aeac a0be 5176 a23f 6012 aabe
00000330: ffe4 2bbe 669c 79bf a8bd febc c7ab c9bc
00000340: 6645 393d 54e9 803f 9f45 95bf ea9f bfbe
00000350: 2459 463f 963b a3bd 8db6 6bbf a337 24bf
00000360: 72aa 16be 6ef6 dbbe 1172 363e 325a 51be
00000370: 80a6 0fbf c963 253f 2c77 63c0 9534 5cbf
00000380: 92b4 cebe c7db 353f 6574 e8bd e8d7 b7be
00000390: 9ae1 e0be 4ff9 babd 752a 79be ff8c 5c3e
000003a0: ba63 bfbf e670 cdbe 2676 533c 7a8d a13e
000003b0: 18e8 343f a846 ee3d 8ce7 1dbe b04e b3bd
000003c0: 140d 2e3e f501 d8bc 7e42 60be 92d5 d33c
000003d0: 82d4 b93a fe8d 1a3d 757d 93be d32d 51be
000003e0: 9686 3cbd 66eb 323d 57d1 c53c a76c b53c
000003f0: a582 11bf 3f18 8cbe 29f9 18bd 55c7 f03b
0.22712925 -0.11341687 -0.11227919 -0.23245542 0.118775256 0.12924792 0.0030534784 -0.0026096227
-0.24063589 0.2840715 -0.045389015 0.07434302 0.050267488 0.049194362 -0.20370817 0.074007854
-0.15637325 -0.18592034 -1.2367898 0.1817234 -3.1058903 0.09185767 0.0036087818 -0.07555315
0.19114745 -0.27503762 -0.0763232 -0.25239328 0.22788517 0.035693116 0.07610739 -0.00848832
-0.010952341 -0.2481676 0.11205451 -0.20343529 -0.6416047 0.27404246 -0.061394557 0.05515739
0.018688777 -0.5433694 -3.3315399 -0.46931985 -1.0810101 1.0949767 -0.048806764 0.011568476
0.43978843 0.4619462 -0.32148677 -0.18584757 0.030745216 -1.013528 -0.8540286 -4.322986
0.7958173 -0.92862785 -0.2715402 -0.042532492 0.030879155 -0.65456563 0.07893014 -0.14616507
-0.12565437 0.93947846 0.1368455 0.7022984 1.518748 0.019148342 0.41434073 -0.3983651
0.107799135 -0.08541474 -0.2422018 0.01626667 -0.12921123 -0.19179118 0.21396703 0.0771086
-0.14156772 -0.26154068 0.02841475 -0.06594114 0.15255366 -1.0407145 0.08140107 -0.02300613
0.91253376 0.5855214 -0.8361431 -0.95475453 -2.2415078 -1.559988 0.52262944 -0.2360661
0.7111741 0.08842489 -0.026704054 -0.32206243 -0.13794535 1.5198545 3.117418 1.2666522
2.0200455 -1.0836596 0.2416099 -0.046075244 0.64243317 -0.462766 -0.098465994 0.102265984
0.38414913 1.6355515 -2.6789594 0.14886227 2.4459405 -0.10490243 0.43104914 -0.13451333
0.033513725 0.047002733 0.123034105 -0.21756385 -0.21981303 0.077935606 0.2788889 -0.12453412
0.0723585 -0.007368735 0.011039406 0.016265705 -0.09152407 0.47041312 -0.04868865 0.027123924
-0.067451194 0.035679393 -0.44383287 0.20504817 0.8843205 1.5439774 0.22434558 -0.31668454
-0.054162756 -0.16188277 -0.02950863 -0.04229307 0.16208811 -0.24128787 -0.14284047 0.28389665
0.25158295 -0.1375618 -0.18644467 0.0458911 -0.124240756 -0.031343516 0.0036936244 -0.06370249
-0.2310348 -0.11100385 -0.12621412 -0.17237471 0.21701604 0.23419303 0.09499514 -0.14584506
-0.046305083 0.13845423 0.1031871 -0.28520095 -0.24321805 -0.08957441 -0.07948703 -0.23742321
0.19925602 -0.029814387 -0.273756 0.24910507 0.11477769 -0.06213479 -0.11978528 -0.09835419
-0.07555829 -0.18835925 -0.15407263 0.28107774 -2.1813054 0.22968198 -0.19447201 -0.08166677
-0.8569042 0.061788768 -0.20396134 0.024680898 -0.5450884 -0.65247995 1.0345659 0.029071266
0.3353142 -0.31381744 1.2692357 -0.33217144 -0.16786574 -0.9750427 -0.031096295 -0.024618043
0.0452322 1.0071206 -1.1661872 -0.37426692 0.7747977 -0.079703495 -0.92075425 -0.64147395
-0.14713457 -0.42961448 0.1781695 -0.20444563 -0.56113434 0.64605385 -3.5541487 -0.86017734
-0.4037214 0.7103848 -0.113503255 -0.3590691 -0.4392212 -0.09129583 -0.24332602 0.2153816
-1.4952309 -0.40125197 0.012906587 0.3155325 0.70666647 0.1163457 -0.1542036 -0.08755243
0.16997176 -0.02636812 -0.21900365 0.025858674 0.0014177712 0.03773307 -0.28806654 -0.20427637
-0.04602679 0.043681525 0.024147673 0.022146536 -0.5683997 -0.27362248 -0.037346993 0.007347981

fc1.bias f4 [64]
00000000: b45e 30bd 65a5 553e 5245 02be 3ed3 d3be
00000010: 328d 6abe 5393 ee3c 748e c0bc 1767 55be
00000020: 0411 0b3e 8cb8 86bd 3c77 89be 58a0 983d
00000030: 7f3c 7e3e 2071 34be b579 02be 365f 153d
00000040: 9d02 4d3e 44bd dcbe 1cf0 fdbd 0589 a53d
00000050: dc55 15bd f544 da3d 941d f6be 0593 7ebe
00000060: 20e4 55bc f9f2 99be 6ce6 213e 577c 663e
00000070: ccec 903e 68c5 273d f17e c4bc 30b5 c83d
00000080: b9ab 153e b146 18bc 9b95 613d e257 a6be
00000090: d765 c4be a09b 36be 4771 bcbd 3f34 abbe
000000a0: 19ee 813d f1df 1f3e 9c2f 143e 822a 533e
000000b0: b70c 93bd 4854 69bd 0707 c5be 7f1f 883e
000000c0: 60ca 1e3d 7d69 16be 021c 513d 072e 0dbd
000000d0: a057 c4bd 178e e73d 648c 5f3e 769c 62be
000000e0: 046c 1bbc 0e0a e43d e496 653e 221d d7bd
000000f0: 8abb cf3d a8cc 9bbe 8b08 49bd 28ee 10bd
-0.043059066 0.20863874 -0.12721756 -0.41372102 -0.22905424 0.029122984 -0.023505427 -0.20840107
0.1358071 -0.06578168 -0.2684878 0.07452458 0.24827765 -0.17621279 -0.1274174 0.036467753
0.20020528 -0.43113148 -0.12399313 0.08082775 -0.036458835 0.10657684 -0.4806944 -0.24860771
-0.0130548775 -0.30068186 0.15810555 0.2250837 0.28305662 0.040959746 -0.023986312 0.09800184
0.14616288 -0.009294198 0.055074316 -0.32488924 -0.38358948 -0.17832804 -0.092012934 -0.33438298
0.06344242 0.1561277 0.14471287 0.20621684 -0.071801595 -0.056965142 -0.38481924 0.2658653
0.03876722 -0.14688678 0.0510521 -0.034467723 -0.09587026 0.11306398 0.21830899 -0.22129998
-0.009486202 0.1113473 0.22420841 -0.105036035 0.10143192 -0.30429578 -0.049080413 -0.035383373

fc2.weight f4 [64, 64]
00000000: a874 37bd bd6a 383e 0037 2a3b 9195 833e
00000010: 3900 2d40 9fce 8f3f d8ab 88bc dbec 4abf
00000020: 0144 88be bf6d bebe 0c3e ccbd 7722 2dbd
00000030: e019 b7bd 44e0 793d 18e1 f73d bc2c 65be
00000040: 983e 8bbd f930 7abf 7988 903e 9cf3 003e
00000050: 5403 b63d 1d31 aabe 8213 b1be 3b3a abbc
00000060: 00f6 1a40 eea2 983d 2657 c73c c817 a6bc
00000070: 7467 d4bd e892 0cbf ee59 983d c491 3fbe
00000080: 302d a03d c072 ffbd 0a13 dc3d ab95 843e
00000090: 35e8 5fbe c4d7 603d 02b7 9bbd 0344 003e
000000a0: bd1d 6abe eb68 81bd b082 5fbd af9e bcbd
000000b0: 14ae a23d 870f 4c3e e6c5 903f 1cbb 813d
000000c0: cfc9 bf3c b96e 983d c5c9 62be b642 2c3e
000000d0: 5039 773d 04d3 0b3d aa24 c53d a305 0ebf
000000e0: b983 01bf 640b 78bd cea4 9d3d 1572 85bd
000000f0: 53b7 893e 71fa 0ebf 8f5d 1dbe 292b c3bf
00000100: b8ff d7bc f4b2 efbd c477 b3bd d57f f5bd
00000110: 8404 3d3d d582 71bd f4bf 5ebd 4e5b 02be
00000120: 544f 61bc a48a 99bb f854 f83d 7a2a c13c
00000130: f059 94bc d046 12bd f0d0 a83d 9d01 d9bd
00000140: b0e5 03be 7741 1c3b ab24 10bd f02e df3b
00000150: 70d7 13bc e756 823d 5611 90bc c09d 3b3c
00000160: 24c9 60be c08a 05bc 804d 0dbd 4c6e 063d
00000170: b073 31bc 8252 edbd 2e0d 81bd 2254 cabd
00000180: 7059 e8bc 2099 d4bd f658 f5bd e5ea 37bd
00000190: b110 04be e074 f1bb e091 a3bc f4fd e6bd
000001a0: cee2 e1bd f6a1 ce3d 48a1 a73d e4fe aebd
000001b0: 44bf da3d ca36 993c 2e94 22be c042 f1bb
000001c0: 61f8 a8bd 7db6 fabd 0cb1 06bc ec7d bfbd
000001d0: 982c 04bd 7eb7 903d 74e1 923d 54b6 e5bc
000001e0: 5bc8 39bd eaf8 b03d 1063 58bc 14b3 693d
000001f0: d5ab c03c c6dd 5d3c 5947 0d3e 7af5 7bbd
00000200: c0b3 71bc 6136 44bd 8471 633d 9670 c4bd
00000210: 1182 543d e444 e3bc a054 a8bb 24cf 8ebf
00000220: f24b 42bf f9e6 75bf 5685 d5bd 1d50 7cbf
00000230: e095 e8bb 2ef2 f1bd 440b d9bd aa23 15be
00000240: becf 9b3d ac03 d13c 9302 7bbb e6e5 8a3e
00000250: 24a3 523d bd6b 14bc b893 363e 4048 e7bd
00000260: 4b66 cfbb b7ee f53d 65ed 56bf 42fd 8b3d
00000270: 8057 d5bd deea 20be c015 da3b 5538 dfbe
00000280: 0018 1a3c f0d1 303d 863a f43d 5c06 803e
00000290: b717 673d f864 bb3c f091 9bbd 4e3a 98bf
000002a0: ca96 bebd 8329 97bf a896 883d 0e17 91be
000002b0: 2090 e13c f89a 9a3e 4734 a4be fc64 a73d
000002c0: 2628 383d 7882 d1bd 36dc e5be 0539 a6bf
000002d0: 60c9 b93b 82a6 b0bd 74b2 3f3d 5356 7abd
000002e0: 41c8 ebbc 9edb 913d f065 f5bc 870b 593d
000002f0: 5379 513d 4734 093e 3ec0 66be 3f90 163e
00000300: 0c53 183d 9dd4 b8bc e01d 4c3c f184 0fbe
00000310: 59c8 aabd bb89 ecbd fcbb e53d 9156 b13c
00000320: 96b1 59bd dc8f d5bd 6cb8 61bd 0568 913d
00000330: 48f3 97bc 485c b33c a8fc fdbd 1f5e 24be
00000340: fe6b cabe d29f 203c deb5 dcbc e5b9 f5bc
00000350: d4a0 8cbd c5ca 253d 452e d6bc 6461 b63d
00000360: a013 97bb 7c53 f93c 9f07 ebbd 10af 7e3d
00000370: f8df c1bd f4b1 05bd 18dc 753d 5a68 f7bc
00000380: a012 cb3b d00f 5f3c 7872 c1bc 0797 21bd
00000390: 8793 353d 3886 ae3c 3cd3 133d 17ba ab3d
000003a0: ec0a 16be 5411 ccbd 3801 dfbc 61a6 d73d
000003b0: 7c13 01bd 8516 14bd de6b 3e3c 181d f6bd
000003c0: a2f3 e03d 809b acbd 0d8b 693d 5a64 f1bc
000003d0: 80cc 97bd d447 543d 9807 d1bc 1625 113d
000003e0: a342 b4bd 57a4 a23c 8cec c73d e4fd 02bd
000003f0: f993 32be 73c8 5a3d e96a 07be 0016 d53b
-0.044788986 0.18009467 0.0025972724 0.25700048 2.7031386 1.1234931 -0.016683504 -0.7926766
-0.26614383 -0.37193105 -0.09972772 -0.042269196 -0.08940482 0.061004892 0.1210348 -0.22380346
-0.06799048 -0.97730976 0.2822912 0.1259293 0.088873535 -0.33240595 -0.34585196 -0.02090179
2.4212646 0.07452951 0.024333548 -0.020275012 -0.103712946 -0.5491166 0.07439028 -0.18707949
0.07821119 -0.12473059 0.10745819 0.25895438 -0.21865924 0.05489327 -0.07603265 0.12525944
-0.22862907 -0.0631884 -0.054567993 -0.09209954 0.07943359 0.19927798 1.1310394 0.063345164
0.02341166 0.07442994 -0.22147281 0.16822323 0.06035739 0.034136787 0.09626134 -0.5547735
-0.5059162 -0.060557738 0.076974496 -0.065159 0.26897678 -0.55850893 -0.15367721 -1.5247546
-0.026367053 -0.117040545 -0.08763078 -0.11987273 0.046146885 -0.05896266 -0.05438228 -0.12730142
-0.013751823 -0.0046857167 0.121255815 0.023579825 -0.018109292 -0.035712063 0.08242977 -0.10596011
-0.12880588 0.002384273 -0.03519122 0.0068110153 -0.009023532 0.063642316 -0.017586391 0.011451185
-0.21951729 -0.008150756 -0.034497738 0.03282003 -0.010830805 -0.11588003 -0.06301342 -0.09879328
-0.02836296 -0.10380769 -0.119798586 -0.044901747 -0.12896992 -0.007368669 -0.01996702 -0.112789065
-0.11029588 0.10089485 0.08185059 -0.0854471 0.10681012 0.018702883 -0.15876839 -0.0073626935
-0.082504995 -0.12241838 -0.008220922 -0.093501896 -0.03226909 0.07066248 0.07171908 -0.028041042
-0.04535709 0.086412266 -0.013207212 0.057055548 0.023519436 0.013541644 0.13796748 -0.0615134
-0.014752328 -0.047903422 0.05552818 -0.095917866 0.051881853 -0.02774281 -0.005137041 -1.1156964
-0.75897133 -0.9605556 -0.104258224 -0.98559743 -0.0070979446 -0.1181377 -0.10597852 -0.14564386
0.07607983 0.025514446 -0.0038301095 0.27128524 0.051425114 -0.00905889 0.17829788 -0.112930775
-0.006329333 0.12008422 -0.83955985 0.068354145 -0.1041708 -0.15714595 0.006655425 -0.43597665
0.009405136 0.043168962 0.11925225 0.25004852 0.0564191 0.022875294 -0.07596195 -1.1892793
-0.093061045 -1.1809543 0.066693604 -0.28337902 0.027534544 0.30196357 -0.32071134 0.08173558
0.044960164 -0.10229963 -0.4489457 -1.2986151 0.0056697577 -0.08625509 0.046801046 -0.06111748
-0.028782012 0.07121967 -0.029955834 0.05298951 0.051141094 0.13398848 -0.22534272 0.14703463
0.037188575 -0.02256232 0.012458295 -0.14015557 -0.083389945 -0.115497075 0.11217496 0.021647723
-0.053147875 -0.104278296 -0.05510752 0.07099918 -0.018548623 0.021894589 -0.12401706 -0.1605153
-0.39535517 0.009803729 -0.02694219 -0.029995868 -0.06866613 0.04047658 -0.02614511 0.089052945
-0.004610494 0.030435316 -0.11476063 0.06217867 -0.09466547 -0.032640412 0.06002435 -0.030201126
0.0061972886 0.01361461 -0.023614153 -0.03945067 0.044330146 0.021304235 0.03609012 0.08385103
-0.14652604 -0.099642426 -0.02722226 0.10529781 -0.031512722 -0.03615429 0.011622397 -0.12017268
0.10983969 -0.08428097 0.057017375 -0.029466797 -0.07412052 0.051826313 -0.025516316 0.03543576
-0.088017724 0.019853754 0.097619146 -0.03198041 -0.1743926 0.05341382 -0.13224377 0.0065028667

fc2.bias f4 [64]
00000000: eea0 1dbf 775e 9cbd 63dc b63d a589 12bd
00000010: e69d 0e3d bc32 0f3e 15c3 18bd 96c7 eebb
00000020: 39c9 45bd db50 b13b f630 66bd 2b20 96bc
00000030: 69bc 423e ede0 ca3e 49b3 883e b238 b8bb
00000040: 7ab7 94bd e648 e7b7 77a0 76bd 2624 93bd
00000050: 785d ebbd 692f b73e 7a79 f13e 35b3 21be
00000060: 209f 00be 8590 fbbd e5ef 21be dd38 663e
00000070: 8a13 213e f887 a33d d669 b2be c237 3a3d
00000080: 06f6 453c 4d85 193d ec82 10be df99 e53a
00000090: 4712 fcbd 05e8 6e3c 64a9 97bd db9b 04be
000000a0: 2a85 3ebc 655b b6bd 1cb1 1bbe d0f6 913d
000000b0: c175 38be a551 313c c002 72bd 0260 a33e
000000c0: 104c 15be bb0e 40be 0b2b 79ba 7547 8dbd
000000d0: 8bdb febd a498 84bc 2443 3fbe 8cea 82bd
000000e0: 3cfc 433d 52ec c13d 78b5 d1bd ff79 8e3d
000000f0: 460f 31be 3b05 7f3d 75fd 86be 63e9 1abd
-0.61573684 -0.07635205 0.08928754 -0.0357758 0.034818552 0.13984197 -0.03729542 -0.007286976
-0.048287604 0.00541125 -0.056199037 -0.018325886 0.19017185 0.3962473 0.26699284 -0.005621993
-0.07261558 -2.7571292e-05 -0.060211625 -0.07184629 -0.11492437 0.3577836 0.47162992 -0.15791018
-0.12560701 -0.12283424 -0.15814169 0.22482629 0.1573011 0.07984918 -0.3484637 0.04546333
0.012082582 0.03748064 -0.14112443 0.0017517171 -0.123081736 0.014581685 -0.074053556 -0.12950079
-0.0116284285 -0.08904151 -0.1520428 0.07127154 -0.1801367 0.010822688 -0.059084654 0.31909186
-0.14579797 -0.18755619 -0.000950501 -0.06898395 -0.12444218 -0.016186066 -0.18677956 -0.063923925
0.04784797 0.09468903 -0.102396905 0.06956863 -0.17290983 0.062260848 -0.26365247 -0.03782023

fc3.weight f4 [4, 64]
00000000: f4b9 f0bf ce94 ab3c b6f5 15bf 3f4c 31bb
00000010: 94a3 97bd 33f6 3f3f 5adb 1cbc 62b6 7bbd
00000020: 097f 973c 7f11 493e d421 10bd 1801 3bbc
00000030: 5736 d53e 9c6b 40bf 4675 853f 19ef 35ba
00000040: 84d9 523c 7d63 aa3c bab2 353c 3b2e 8dbc
00000050: c55b b3be 99cc d93e 3dea cdbf 51f1 acbc
00000060: 6871 8d3c 0214 6c3d f6a8 f33c 5c0a 413e
00000070: d107 0abb 94de ce3e 5e64 95bd d766 453c
00000080: 3bbd 273d 3352 a4bd ab81 f93e fd26 f33d
00000090: 9610 43bd 5d7b 90bc 59c2 ad3d 74e6 df3d
000000a0: efb3 963e a6cb 193d 9e18 f53c 466f 103e
000000b0: 6c64 19bf dcc0 d8bc e748 1b3e b358 eebe
000000c0: a22e a6bb 6dfb cd3d de28 173c 215c bb3c
000000d0: cf1c a43a 769c 1c3e 22c2 afbd c41e 5bbe
000000e0: 8e68 e6bd 7e69 3ebf d427 27bd 3987 d13c
000000f0: f996 103e a34f c6b9 1aaa 7bbf 277a 2f3c
00000100: d2fb 05c0 0c57 b23a 6f18 de3b edb7 3ebd
00000110: eb78 56bd 5f30 483f 219e 583e 3f06 f43a
00000120: ab5e 4f3c f8c1 a03d 65c6 3cbc 781c 8dbd
00000130: 2631 e83e 9f92 92bf a4c7 7d3f 5977 973d
00000140: 6b89 293d fb17 6ebe a690 263d 025a e83d
00000150: 2eb0 6dbc 79dd d83e 861c a7bf 4774 a4be
00000160: 7e99 ff3d 702d 493d bfd8 bdbe fc62 5f3d
00000170: 2d7b 75bd 3d59 003f 9aae 1bbe 5399 8c3b
00000180: 05dd cbbd 715e 353d dd56 ab3e 80d6 b63b
00000190: 794f c7bc c81a f0bd 8d71 5abe 0771 073c
000001a0: a166 b93e e107 453d 2edd eb3c 25ef 45bf
000001b0: b763 aabe e386 dd3d acc4 f0bd 32f9 02bf
000001c0: edf5 26bd 23d2 903d 0860 cf3c 87d6 afbe
000001d0: 4440 c03c fc76 fd3d 8a67 d7bd 8c80 3f3b
000001e0: c1ba 1f3e 2920 3fbf 0f2d 2bbe 02cd 24bf
000001f0: 0a42 303f 61f4 22bf e86b 90bf ebdc 30bf
00000200: 6efd 1dc0 2be3 6b3c d585 2b3e 5c91 99bd
00000210: 3d59 ad3d 1b0d 1f3f 5c13 883d 0462 bdbd
00000220: e03c b23c af9d 31be dea3 8d3c 16ae abbc
00000230: 1545 973e 65cc 9d3f ab7c 443f e7e5 c2be
00000240: 1a7f a03c 6218 013e 484c 78bd 2dc2 8f3c
00000250: de94 f0bd 084e ef3e 891b 30c0 6425 d3be
00000260: 2adc c13d e576 3c3d 8413 953d ef96 2d3d
00000270: 449e efbd bddc ab3e c7dd 18be 4cae 813d
00000280: 3b3f 8f3d acb3 d2bc 538f 153d 8be0 343f
00000290: 9aea 9f3d 6585 fabc b070 0e3e f4f4 71bd
000002a0: 9b40 40be 10f3 e1bc 7062 e43c d864 d9bd
000002b0: f672 a0bf e01c dd3c 082d 18bd 85b4 1abf
000002c0: 192f 1ebd d516 5a3d a128 b1bd ad42 3ebc
000002d0: b3bd 1abd 6b76 553e ee2b 87bd 28c5 49bc
000002e0: 15dc edbc d483 803e aae3 17be e46f 00bf
000002f0: 5d91 463f f132 0dbd 8693 c0bf 31f0 843e
00000300: 31ce f8bf c206 933d 45dc 02be 6132 8d3d
00000310: 6368 fabc 77f2 263f 438c b13e e348 773d
00000320: 40d1 fabc 07b9 543d b8d5 ac3b 9cc8 e9bd
00000330: 296f 713e 861c 653f 381c 813f e71f 3abd
00000340: 7ef2 003d 09a4 583e 9fad 533d 4e9f d8bd
00000350: 36ff c8bd 5c05 0f3f 8adc 27c0 bf87 eabd
00000360: 2077 c23b 6005 4d3d fb7e 213d 0706 323e
00000370: 8abb a8bd 8141 703e d014 60be c71b b8bd
00000380: 77ee b33c eb1a f83d 86b8 9b3e cd21 103f
00000390: b91e c2bd 15b5 ef3d d7ce 873e 782d 5a3d
000003a0: 8b99 04be f826 b43c b321 a23c 1a1c 893c
000003b0: 467f 12c0 db23 313d 0d5d 1bbd 1ca6 07bf
000003c0: 22d9 13be 894c 38bd c2ae e73d f66f abbd
000003d0: 45d9 d73d da01 0a3e 9775 fc3b 5fd3 513c
000003e0: f4ff 08bd 4bf3 59be 3b05 c6bd 5575 7e3c
000003f0: b1ea 8abd c0f6 153e b301 b1bf 31c3 633e
-1.8806748 0.020944979 -0.5857805 -0.0027053503 -0.07404247 0.74985045 -0.009573782 -0.06145323
0.018493192 0.1963558 -0.03518851 -0.011413835 0.4164302 -0.751642 1.0426414 -0.00069402304
0.012869243 0.020799393 0.011089975 -0.017233958 -0.35030952 0.42538908 -1.6087109 -0.021111162
0.01726599 0.05763627 0.029743653 0.18851608 -0.0021061788 0.4040419 -0.07294534 0.012048445
0.04095195 -0.08023491 0.4873174 0.11872671 -0.04762324 -0.01763695 0.084843345 0.10932627
0.29434153 0.03754773 0.029918965 0.14104947 -0.59918857 -0.02645915 0.15164529 -0.46552047
-0.005071477 0.10057721 0.009226052 0.022871079 0.0012520793 0.1529406 -0.0858195 -0.21398455
-0.11250411 -0.7437972 -0.040809467 0.025577174 0.14120091 -0.00037824837 -0.9830643 0.010710276
-2.093495 0.0013606264 0.006777815 -0.046562124 -0.05236141 0.7819881 0.21154071 0.0018617584
0.012656848 0.078494966 -0.01152191 -0.068901956 0.45349997 -1.1450995 0.9913275 0.07395811
0.041390818 -0.23251335 0.04066529 0.11345293 -0.014507337 0.4235647 -1.305558 -0.32119963
0.12480448 0.0491156 -0.37079427 0.05453776 -0.059931923 0.50136167 -0.15203324 0.0042907386
-0.099542655 0.04427952 0.3346471 0.0055797696 -0.024329888 -0.11723858 -0.21332379 0.008266694
0.36211112 0.048103217 0.02879199 -0.7731803 -0.332792 0.10816743 -0.11756262 -0.5116149
-0.040761877 0.070713304 0.025314346 -0.3434336 0.023468144 0.1237621 -0.105177954 0.0029220907
0.15598585 -0.7465845 -0.16716407 -0.6437532 0.6885077 -0.6365414 -1.128293 -0.69087094
-2.4685931 0.014397423 0.16750272 -0.07498428 0.084642865 0.6212937 0.066443175 -0.092472106
0.021757543 -0.17345308 0.017290052 -0.020957034 0.29544893 1.2328001 0.7675273 -0.38066027
0.019591857 0.12606958 -0.060619622 0.017548645 -0.11747144 0.4673922 -2.7516806 -0.41239464
0.09465821 0.046011824 0.07279113 0.04238027 -0.11700109 0.33566847 -0.14928351 0.063320726
0.06994482 -0.02572044 0.036513638 0.70655125 0.078084186 -0.030581186 0.13910174 -0.059071496
-0.18774645 -0.027581722 0.02787897 -0.106149375 -1.2535083 0.026991308 -0.03715232 -0.604317
-0.038619135 0.05324443 -0.086503275 -0.011612576 -0.037778568 0.20845954 -0.06600176 -0.012315072
-0.029035607 0.25100577 -0.1483294 -0.5017073 0.77565557 -0.03447241 -1.504502 0.25964502
-1.9437925 0.07179023 -0.12779339 0.06894375 -0.030567354 0.6521372 0.34677324 0.060372245
-0.030617356 0.05193427 0.0052745007 -0.11415216 0.2357756 0.8949665 1.0086737 -0.04544058
0.03148126 0.21156324 0.05167925 -0.1057726 -0.098143026 0.5586755 -2.6228356 -0.11451673
0.005934611 0.050053954 0.03942774 0.17385112 -0.08238895 0.23462488 -0.2188294 -0.08989673
0.021964295 0.12114509 0.30414218 0.56301576 -0.09478516 0.117044605 0.26524994 0.05326602
-0.12949197 0.021991238 0.01979146 0.016737033 -2.2890182 0.043247085 -0.037930537 -0.5298784
-0.14438298 -0.044994865 0.11312629 -0.08370964 0.10539488 0.13477269 0.0077044475 0.012806742
-0.03344722 -0.21284215 -0.096689664 0.015530904 -0.06783045 0.14644909 -1.3828644 0.22242428

fc3.bias f4 [4]
00000000: 9c64 bb3d 98a6 3abf 3438 b33e 6896 b43d
0.09150049 -0.7291045 0.35003817 0.0881775
